…
[INFO:swift] [base_model.model.visual.blocks.1.norm2.bias]: requires_grad=False, dtype=torch.bfloat16, device=cuda:0
[INFO:swift] [base_model.model.visual.blocks.1.attn.qkv.weight]: requires_grad=False, dtype=torch.bfloat16, device=cuda:0
[INFO:swift] [base_model.model.visual.blocks.1.attn.qkv.bias]: requires_grad=False, dtype=torch.bfloat16, device=cuda:0
[INFO:swift] [base_model.model.visual.blocks.1.attn.proj.weight]: requires_grad=False, dtype=torch.bfloat16, device=cuda:0
[INFO:swift] ...
[INFO:swift] PeftModelForCausalLM(
  (base_model): LoraModel(
    (model): Qwen2VLForConditionalGeneration(
      (visual): Qwen2VisionTransformerPretrainedModel(
        (patch_embed): PatchEmbed(
          (proj): Conv3d(3, 1280, kernel_size=(2, 14, 14), stride=(2, 14, 14), bias=False)
        )
        (rotary_pos_emb): VisionRotaryEmbedding()
        (blocks): ModuleList(
          (0-31): 32 x Qwen2VLVisionBlock(
            (norm1): LayerNorm((1280,), eps=1e-06, elementwise_affine=True)
            (norm2): LayerNorm((1280,), eps=1e-06, elementwise_affine=True)
            (attn): VisionSdpaAttention(
              (qkv): Linear(in_features=1280, out_features=3840, bias=True)
              (proj): Linear(in_features=1280, out_features=1280, bias=True)
            )
            (mlp): VisionMlp(
              (fc1): Linear(in_features=1280, out_features=5120, bias=True)
              (act): QuickGELUActivation()
              (fc2): Linear(in_features=5120, out_features=1280, bias=True)
            )
          )
        )
        (merger): PatchMerger(
          (ln_q): LayerNorm((1280,), eps=1e-06, elementwise_affine=True)
          (mlp): Sequential(
            (0): Linear(in_features=5120, out_features=5120, bias=True)
            (1): GELU(approximate='none')
            (2): Linear(in_features=5120, out_features=3584, bias=True)
          )
        )
      )
      (model): Qwen2VLModel(
        (embed_tokens): Embedding(152064, 3584)
        (layers): ModuleList(
          (0-27): 28 x Qwen2VLDecoderLayer(
            (self_attn): Qwen2VLSdpaAttention(
              (q_proj): lora.Linear(
                (base_layer): Linear(in_features=3584, out_features=3584, bias=True)
                (lora_dropout): ModuleDict(
                  (default): Dropout(p=0.05, inplace=False)
                )
                (lora_A): ModuleDict(
                  (default): Linear(in_features=3584, out_features=8, bias=False)
                )
                (lora_B): ModuleDict(
                  (default): Linear(in_features=8, out_features=3584, bias=False)
                )
                (lora_embedding_A): ParameterDict()
                (lora_embedding_B): ParameterDict()
                (lora_magnitude_vector): ModuleDict()
              )
              (k_proj): lora.Linear(
                (base_layer): Linear(in_features=3584, out_features=512, bias=True)
                (lora_dropout): ModuleDict(
                  (default): Dropout(p=0.05, inplace=False)
                )
                (lora_A): ModuleDict(
                  (default): Linear(in_features=3584, out_features=8, bias=False)
                )
                (lora_B): ModuleDict(
                  (default): Linear(in_features=8, out_features=512, bias=False)
                )
                (lora_embedding_A): ParameterDict()
                (lora_embedding_B): ParameterDict()
                (lora_magnitude_vector): ModuleDict()
              )
              (v_proj): lora.Linear(
                (base_layer): Linear(in_features=3584, out_features=512, bias=True)
                (lora_dropout): ModuleDict(
                  (default): Dropout(p=0.05, inplace=False)
                )
                (lora_A): ModuleDict(
                  (default): Linear(in_features=3584, out_features=8, bias=False)
                )
                (lora_B): ModuleDict(
                  (default): Linear(in_features=8, out_features=512, bias=False)
                )
                (lora_embedding_A): ParameterDict()
                (lora_embedding_B): ParameterDict()
                (lora_magnitude_vector): ModuleDict()
              )
              (o_proj): lora.Linear(
                (base_layer): Linear(in_features=3584, out_features=3584, bias=False)
                (lora_dropout): ModuleDict(
                  (default): Dropout(p=0.05, inplace=False)
                )
                (lora_A): ModuleDict(
                  (default): Linear(in_features=3584, out_features=8, bias=False)
                )
                (lora_B): ModuleDict(
                  (default): Linear(in_features=8, out_features=3584, bias=False)
                )
                (lora_embedding_A): ParameterDict()
                (lora_embedding_B): ParameterDict()
                (lora_magnitude_vector): ModuleDict()
              )
              (rotary_emb): Qwen2VLRotaryEmbedding()
            )
            (mlp): Qwen2MLP(
              (gate_proj): lora.Linear(
                (base_layer): Linear(in_features=3584, out_features=18944, bias=False)
                (lora_dropout): ModuleDict(
                  (default): Dropout(p=0.05, inplace=False)
                )
                (lora_A): ModuleDict(
                  (default): Linear(in_features=3584, out_features=8, bias=False)
                )
                (lora_B): ModuleDict(
                  (default): Linear(in_features=8, out_features=18944, bias=False)
                )
                (lora_embedding_A): ParameterDict()
                (lora_embedding_B): ParameterDict()
                (lora_magnitude_vector): ModuleDict()
              )
              (up_proj): lora.Linear(
                (base_layer): Linear(in_features=3584, out_features=18944, bias=False)
                (lora_dropout): ModuleDict(
                  (default): Dropout(p=0.05, inplace=False)
                )
                (lora_A): ModuleDict(
                  (default): Linear(in_features=3584, out_features=8, bias=False)
                )
                (lora_B): ModuleDict(
                  (default): Linear(in_features=8, out_features=18944, bias=False)
                )
                (lora_embedding_A): ParameterDict()
                (lora_embedding_B): ParameterDict()
                (lora_magnitude_vector): ModuleDict()
              )
              (down_proj): lora.Linear(
                (base_layer): Linear(in_features=18944, out_features=3584, bias=False)
                (lora_dropout): ModuleDict(
                  (default): Dropout(p=0.05, inplace=False)
                )
                (lora_A): ModuleDict(
                  (default): Linear(in_features=18944, out_features=8, bias=False)
                )
                (lora_B): ModuleDict(
                  (default): Linear(in_features=8, out_features=3584, bias=False)
                )
                (lora_embedding_A): ParameterDict()
                (lora_embedding_B): ParameterDict()
                (lora_magnitude_vector): ModuleDict()
              )
              (act_fn): SiLU()
            )
            (input_layernorm): Qwen2RMSNorm((3584,), eps=1e-06)
            (post_attention_layernorm): Qwen2RMSNorm((3584,), eps=1e-06)
          )
        )
        (norm): Qwen2RMSNorm((3584,), eps=1e-06)
        (rotary_emb): Qwen2VLRotaryEmbedding()
      )
      (lm_head): Linear(in_features=3584, out_features=152064, bias=False)
    )
  )
)
[INFO:swift] PeftModelForCausalLM: 8311.5607M Params (20.1851M Trainable [0.2429%]), 0.0019M Buffers.
[INFO:swift] Setting model.config.use_cache: False
  0%|          | 0/7392 [00:00<?, ?it/s]100%|██████████| 7392/7392 [00:00<00:00, 3476987.23it/s]
Loading checkpoint shards: 100%|██████████| 5/5 [00:07<00:00,  1.21s/it]Loading checkpoint shards: 100%|██████████| 5/5 [00:07<00:00,  1.44s/it]
…
