…
[INFO:swift] [visual.blocks.1.norm2.weight]: requires_grad=True, dtype=torch.bfloat16, device=cuda:0
[INFO:swift] [visual.blocks.1.norm2.bias]: requires_grad=True, dtype=torch.bfloat16, device=cuda:0
[INFO:swift] [visual.blocks.1.attn.qkv.weight]: requires_grad=True, dtype=torch.bfloat16, device=cuda:0
[INFO:swift] [visual.blocks.1.attn.qkv.bias]: requires_grad=True, dtype=torch.bfloat16, device=cuda:0
[INFO:swift] [visual.blocks.1.attn.proj.weight]: requires_grad=True, dtype=torch.bfloat16, device=cuda:0
[INFO:swift] ...
[INFO:swift] Qwen2VLForConditionalGeneration(
  (visual): Qwen2VisionTransformerPretrainedModel(
    (patch_embed): PatchEmbed(
      (proj): Conv3d(3, 1280, kernel_size=(2, 14, 14), stride=(2, 14, 14), bias=False)
    )
    (rotary_pos_emb): VisionRotaryEmbedding()
    (blocks): ModuleList(
      (0-31): 32 x Qwen2VLVisionBlock(
        (norm1): LayerNorm((1280,), eps=1e-06, elementwise_affine=True)
        (norm2): LayerNorm((1280,), eps=1e-06, elementwise_affine=True)
        (attn): VisionFlashAttention2(
          (qkv): Linear(in_features=1280, out_features=3840, bias=True)
          (proj): Linear(in_features=1280, out_features=1280, bias=True)
        )
        (mlp): VisionMlp(
          (fc1): Linear(in_features=1280, out_features=5120, bias=True)
          (act): QuickGELUActivation()
          (fc2): Linear(in_features=5120, out_features=1280, bias=True)
        )
      )
    )
    (merger): PatchMerger(
      (ln_q): LayerNorm((1280,), eps=1e-06, elementwise_affine=True)
      (mlp): Sequential(
        (0): Linear(in_features=5120, out_features=5120, bias=True)
        (1): GELU(approximate='none')
        (2): Linear(in_features=5120, out_features=3584, bias=True)
      )
    )
  )
  (model): Qwen2VLModel(
    (embed_tokens): Embedding(152064, 3584)
    (layers): ModuleList(
      (0-27): 28 x Qwen2VLDecoderLayer(
        (self_attn): Qwen2VLFlashAttention2(
          (q_proj): Linear(in_features=3584, out_features=3584, bias=True)
          (k_proj): Linear(in_features=3584, out_features=512, bias=True)
          (v_proj): Linear(in_features=3584, out_features=512, bias=True)
          (o_proj): Linear(in_features=3584, out_features=3584, bias=False)
          (rotary_emb): Qwen2VLRotaryEmbedding()
        )
        (mlp): Qwen2MLP(
          (gate_proj): Linear(in_features=3584, out_features=18944, bias=False)
          (up_proj): Linear(in_features=3584, out_features=18944, bias=False)
          (down_proj): Linear(in_features=18944, out_features=3584, bias=False)
          (act_fn): SiLU()
        )
        (input_layernorm): Qwen2RMSNorm((0,), eps=1e-06)
        (post_attention_layernorm): Qwen2RMSNorm((0,), eps=1e-06)
      )
    )
    (norm): Qwen2RMSNorm((0,), eps=1e-06)
    (rotary_emb): Qwen2VLRotaryEmbedding()
  )
  (lm_head): Linear(in_features=3584, out_features=152064, bias=False)
)
[INFO:swift] Qwen2VLForConditionalGeneration: 8291.3756M Params (8291.3756M Trainable [100.0000%]), 0.0019M Buffers.
[INFO:swift] Setting model.config.use_cache: False
[INFO:swift] train_dataset: Dataset({
    features: ['images', 'query', 'response'],
    num_rows: 36230
})
[INFO:swift] val_dataset: None
[INFO:swift] system: You are a helpful assistant.
…
